…
I1006 09:54:39.651777  7952 solver.cpp:98] Creating training net from net file: D:/caffe-windows-master/caffe-windows-master/examples/mnist/Mnist_demo_LeNet_UnSup.prototxt
I1006 09:54:39.651777  7952 net.cpp:340] The NetState phase (0) differed from the phase (1) specified by a rule in layer data
I1006 09:54:39.651777  7952 net.cpp:51] Initializing net from parameters: 
name: "LeNet"
state {
  phase: TRAIN
}
layer {
  name: "data"
  type: "Data"
  top: "data"
  top: "label"
  include {
    phase: TRAIN
  }
  transform_param {
    scale: 0.00390625
  }
  data_param {
    source: "D:/caffe-windows-master/caffe-windows-master/examples/mnist/mnist-train-mini-leveldb"
    batch_size: 128
    backend: LEVELDB
  }
}
layer {
  name: "conv1"
  type: "Convolution"
  bottom: "data"
  top: "conv1"
  param {
    lr_mult: 1
  }
  param {
    lr_mult: 2
  }
  convolution_param {
    num_output: 20
    kernel_size: 3
    stride: 1
    weight_filler {
      type: "gaussian"
      std: 0.01
    }
    bias_filler {
      type: "constant"
    }
  }
}
layer {
  name: "relu1"
  type: "ReLU"
  bottom: "conv1"
  top: "conv1"
}
layer {
  name: "pool1"
  type: "Pooling"
  bottom: "conv1"
  top: "pool1"
  pooling_param {
    pool: MAX
    kernel_size: 2
    stride: 2
  }
}
layer {
  name: "conv2"
  type: "Convolution"
  bottom: "pool1"
  top: "conv2"
  param {
    lr_mult: 1
  }
  param {
    lr_mult: 2
  }
  convolution_param {
    num_output: 50
    kernel_size: 3
    stride: 1
    weight_filler {
      type: "gaussian"
      std: 0.01
    }
    bias_filler {
      type: "constant"
    }
  }
}
layer {
  name: "relu2"
  type: "ReLU"
  bottom: "conv2"
  top: "conv2"
}
layer {
  name: "ip1"
  type: "InnerProduct"
  bottom: "conv2"
  top: "ip1"
  param {
    lr_mult: 1
  }
  param {
    lr_mult: 2
  }
  inner_product_param {
    num_output: 160
    weight_filler {
      type: "gaussian"
      std: 0.01
    }
    bias_filler {
      type: "constant"
    }
  }
}
layer {
  name: "norm1"
  type: "Normalize"
  bottom: "ip1"
  top: "ip1_norm"
}
layer {
  name: "loss"
  type: "GraphLinkageLoss"
  bottom: "ip1_norm"
  bottom: "label"
  top: "loss"
  loss_weight: 1
  graphlinkage_loss_param {
    sigma: 0.2
  }
}
I1006 09:54:39.651777  7952 layer_factory.hpp:76] Creating layer data
I1006 09:54:39.651777  7952 net.cpp:111] Creating Layer data
I1006 09:54:39.651777  7952 net.cpp:434] data -> data
I1006 09:54:39.651777  7952 net.cpp:434] data -> label
I1006 09:54:39.651777  3004 db_leveldb.cpp:17] Opened leveldb D:/caffe-windows-master/caffe-windows-master/examples/mnist/mnist-train-mini-leveldb
I1006 09:54:39.683053  3004 data_reader.cpp:86] DB Size: 10000
I1006 09:54:39.683053  7952 data_layer.cpp:46] output data size: 128,1,28,28
I1006 09:54:39.714280  7952 net.cpp:156] Setting up data
I1006 09:54:39.714280  7952 net.cpp:164] Top shape: 128 1 28 28 (100352)
I1006 09:54:39.714280  7952 net.cpp:164] Top shape: 128 (128)
I1006 09:54:39.714280  7952 layer_factory.hpp:76] Creating layer conv1
I1006 09:54:39.714280  7952 net.cpp:111] Creating Layer conv1
I1006 09:54:39.729903  7952 net.cpp:478] conv1 <- data
I1006 09:54:39.729903  7952 net.cpp:434] conv1 -> conv1
I1006 09:54:39.933051  7952 net.cpp:156] Setting up conv1
I1006 09:54:39.933051  7952 net.cpp:164] Top shape: 128 20 26 26 (1730560)
I1006 09:54:39.933051  7952 layer_factory.hpp:76] Creating layer relu1
I1006 09:54:39.933051  7952 net.cpp:111] Creating Layer relu1
I1006 09:54:39.933051  7952 net.cpp:478] relu1 <- conv1
I1006 09:54:39.933051  7952 net.cpp:420] relu1 -> conv1 (in-place)
I1006 09:54:39.933051  7952 net.cpp:156] Setting up relu1
I1006 09:54:39.933051  7952 net.cpp:164] Top shape: 128 20 26 26 (1730560)
I1006 09:54:39.933051  7952 layer_factory.hpp:76] Creating layer pool1
I1006 09:54:39.933051  7952 net.cpp:111] Creating Layer pool1
I1006 09:54:39.933051  7952 net.cpp:478] pool1 <- conv1
I1006 09:54:39.933051  7952 net.cpp:434] pool1 -> pool1
I1006 09:54:39.933051  7952 net.cpp:156] Setting up pool1
I1006 09:54:39.933051  7952 net.cpp:164] Top shape: 128 20 13 13 (432640)
I1006 09:54:39.933051  7952 layer_factory.hpp:76] Creating layer conv2
I1006 09:54:39.933051  7952 net.cpp:111] Creating Layer conv2
I1006 09:54:39.933051  7952 net.cpp:478] conv2 <- pool1
I1006 09:54:39.933051  7952 net.cpp:434] conv2 -> conv2
I1006 09:54:39.948658  7952 net.cpp:156] Setting up conv2
I1006 09:54:39.948658  7952 net.cpp:164] Top shape: 128 50 11 11 (774400)
I1006 09:54:39.948658  7952 layer_factory.hpp:76] Creating layer relu2
I1006 09:54:39.948658  7952 net.cpp:111] Creating Layer relu2
I1006 09:54:39.948658  7952 net.cpp:478] relu2 <- conv2
I1006 09:54:39.948658  7952 net.cpp:420] relu2 -> conv2 (in-place)
I1006 09:54:39.948658  7952 net.cpp:156] Setting up relu2
I1006 09:54:39.948658  7952 net.cpp:164] Top shape: 128 50 11 11 (774400)
I1006 09:54:39.948658  7952 layer_factory.hpp:76] Creating layer ip1
I1006 09:54:39.948658  7952 net.cpp:111] Creating Layer ip1
I1006 09:54:39.948658  7952 net.cpp:478] ip1 <- conv2
I1006 09:54:39.948658  7952 net.cpp:434] ip1 -> ip1
I1006 09:54:40.151804  7952 net.cpp:156] Setting up ip1
I1006 09:54:40.151804  7952 net.cpp:164] Top shape: 128 160 (20480)
I1006 09:54:40.151804  7952 layer_factory.hpp:76] Creating layer norm1
I1006 09:54:40.151804  7952 net.cpp:111] Creating Layer norm1
I1006 09:54:40.151804  7952 net.cpp:478] norm1 <- ip1
I1006 09:54:40.151804  7952 net.cpp:434] norm1 -> ip1_norm
I1006 09:54:40.151804  7952 net.cpp:156] Setting up norm1
I1006 09:54:40.151804  7952 net.cpp:164] Top shape: 128 160 1 1 (20480)
I1006 09:54:40.151804  7952 layer_factory.hpp:76] Creating layer loss
I1006 09:54:40.151804  7952 net.cpp:111] Creating Layer loss
I1006 09:54:40.151804  7952 net.cpp:478] loss <- ip1_norm
I1006 09:54:40.151804  7952 net.cpp:478] loss <- label
I1006 09:54:40.151804  7952 net.cpp:434] loss -> loss
I1006 09:54:40.151804  7952 net.cpp:156] Setting up loss
I1006 09:54:40.151804  7952 net.cpp:164] Top shape: (1)
…
